lab4/model/model.pth (torch, 250927 bytes, 10 tensors)

conv1.weight f4 [6, 3, 5, 5]
0	0xbda78dff	-0.081813805
1	0xbebb0eb9	-0.3653467
2	0x3f0b68bb	0.5445668
3	0x3e710668	0.235376
4	0x3e81deee	0.25365394
5	0x3ee5d15a	0.44886285
6	0xbf06d30c	-0.5266578
7	0xbe77600a	-0.2415773
8	0x3ddaf701	0.106916435
9	0x3e5cb583	0.21553616
10	0x3f5dffe7	0.867186
11	0xbea6404a	-0.32470924
12	0xbf6ccaa7	-0.9249672
13	0x3e9f9627	0.31169245
14	0x3f4a6475	0.79059535
15	0x3f7c2f6d	0.98509866
16	0xbeb71920	-0.35761356
17	0xbf9c2597	-1.2198972
18	0xbe008793	-0.12551717
19	0x3f4bf798	0.79674673
20	0x3f209577	0.62728065
21	0xbe5b9f96	-0.21447596
22	0xbe560909	-0.20901884
23	0x3eb97e04	0.36228955
24	0x3b337e75	0.0027388607
25	0xbeb3c309	-0.35109738
26	0xbf1e2029	-0.6176782
27	0x3ea42e3d	0.32066527
28	0xbd374b9f	-0.044749852
29	0xbd77717a	-0.060410954
30	0x3f29b8c1	0.6629754
31	0xbed65d59	-0.41868094
32	0xbee43bc0	-0.44576836
33	0xbe1d26f3	-0.15346889
34	0x3ebc3311	0.3675771
35	0x3f592c29	0.8483301
36	0xbee8f761	-0.45501235
37	0xbfa573fe	-1.2926023
38	0xbd77b786	-0.060477756
39	0x3f5013ab	0.8128001
40	0x3fba0124	1.4531598
41	0xbf006b70	-0.50163937
42	0xbfc25e95	-1.5185114
43	0xbf211437	-0.6292147
44	0x3ea042d5	0.3130099
45	0x3f863aea	1.0486729
46	0xbeb8fe39	-0.36131456
47	0xbf22a3de	-0.6353129
48	0xbd9b533d	-0.07584236
49	0xbf16d43e	-0.58917606
50	0xbf2ae704	-0.6675875
51	0xbe3547b6	-0.17703137
52	0x3eef5d5c	0.46750915
53	0x3dc9d12c	0.098543495
54	0x3ebaa50c	0.36454046
55	0x3df7b53f	0.12095117
56	0xbf43116e	-0.7619847
57	0xbecf2310	-0.40456438
58	0x3ec6f86c	0.38861406
59	0x3f4623aa	0.7739817
60	0x3eb0090f	0.3438191
61	0xbf81e62a	-1.0148365
62	0xbfa7fca2	-1.3123972
63	0x3e6fa5cb	0.23403089
64	0x3f90e4d7	1.1319836
65	0x3f8c4265	1.0957762
66	0xbf2d5586	-0.67708623
67	0xbfde6802	-1.7375491
68	0xbf1b3264	-0.60623765
69	0x3f2e03a2	0.67974293
70	0x3faf8d28	1.3714952
71	0xbd5118a5	-0.051048893
72	0xbf44a197	-0.76809067
73	0xbe4bc6dc	-0.19900078
74	0xbef4b58a	-0.47794753
75	0xbf9ca3bc	-1.2237468
76	0xbee6ec8a	-0.4510234
77	0xbf3d6237	-0.7397799
78	0xbecbcf28	-0.39806485
79	0x3ec6ede1	0.38853362
80	0x3e9ba920	0.3040247
81	0x3f1c6fb0	0.6110792
82	0x3e4ac897	0.19803081
83	0x3f7536a1	0.9578648
84	0x3f05dd91	0.5229121
85	0xbe60019d	-0.21875615
86	0xbe3d9d76	-0.18517098
87	0xbe050004	-0.12988287
88	0x3f3a484a	0.72766554
89	0xbd99566a	-0.07487185
90	0x3e4cfda7	0.20018636
91	0x3e9aac19	0.30209425
92	0x3ef066c1	0.46953395
93	0x3ef7ca5d	0.48396578
94	0x3ea38a28	0.31941342
95	0xbf34eba1	-0.7067204
96	0xbf15555f	-0.5833339
97	0xbe9e1ab4	-0.30879748
98	0xbf4dedcb	-0.8044097
99	0xbf1d030e	-0.61332786
100	0xbf820a21	-1.0159341
101	0xbf05be8a	-0.52243865
102	0xbdf4bff0	-0.11950672
103	0x3f12bc6c	0.5731876
104	0x3f7585c8	0.9590726
105	0x3e5734bb	0.21016209
106	0x3e7fb55b	0.24971525
107	0x3ecf8e42	0.40538222
108	0x3fbfab0b	1.4974073
109	0x3e029233	0.12751083
110	0xbe8f2cdc	-0.27963912
111	0xbeb738c2	-0.3578549
112	0x3bbdd978	0.0057937466
113	0x3f0e93c8	0.55694246
114	0xbfda1466	-1.7037475
115	0x3e109554	0.14119464
116	0x3edbd951	0.42939237
117	0x3f15fe22	0.585909
118	0xbe1c0dd7	-0.15239654
119	0xbf8d8899	-1.1057311
120	0x3c90b0ae	0.017662372
121	0xbe0876b6	-0.13326535
122	0xbcba1c17	-0.022718472
123	0xbf37664a	-0.71640456
124	0xbeeadc3e	-0.45871156
125	0x3ee9eab6	0.45686883
126	0x3e4dc6ed	0.20095415
127	0xbc34ae12	-0.01102783
128	0x3e9b9acc	0.30391538
129	0x3f9bd465	1.2174193
130	0x3f047396	0.5173887
131	0x3ed171de	0.40907186
132	0xbcc20a11	-0.02368644
133	0x3f510e35	0.81662303
134	0x3e14a0c2	0.14514449
135	0xbd258d8c	-0.040418193
136	0xbeb12e61	-0.34605697
137	0xbe5aab4f	-0.21354412
138	0xbd9af37a	-0.07565971
139	0xbfa5f179	-1.2964317
140	0x3e1065a5	0.14101274
141	0x3e337aab	0.17527263
142	0x3e90b6d8	0.282645
143	0xbd900613	-0.070324086
144	0xbe555731	-0.20834042
145	0x3e1f7897	0.15573345
146	0xbecb58a2	-0.3971606
147	0xbed88257	-0.4228694
148	0xbefb9e3c	-0.4914416
149	0x3eaf8162	0.342784
150	0xbe86bca9	-0.2631581
151	0x3dc0b571	0.09409607
152	0x3b23e7e6	0.0025010048
153	0x3e0a83ed	0.13526888
154	0xbd1b9582	-0.03798438
155	0xbe0f3994	-0.13986808
156	0x3e83a947	0.25715086
157	0x3ef04d8a	0.46934158
158	0x3f19837a	0.5996624
159	0x3d92e3b8	0.0717234
160	0xbed8b2d9	-0.4232395
161	0xbe6acf3f	-0.2293062
162	0xbe25b885	-0.1618367
163	0xbf06960b	-0.525727
164	0xbe4a7dfe	-0.19774625
165	0x3ec73b04	0.38912213
166	0xbe414658	-0.1887449
167	0xbebda30b	-0.37038454
168	0xbec9a3af	-0.39382693
169	0x3de9f1b6	0.11423056
170	0xbe5af683	-0.213831
171	0xbdf5d675	-0.12003795
172	0xbd47e875	-0.048805673
173	0xbc465d82	-0.012107255
174	0xbde9015b	-0.11377212
175	0xbf8c90f7	-1.098174
176	0xbf4ab7f5	-0.79186946
177	0xbf5b1743	-0.8558237
178	0xbf1984be	-0.59968174
179	0xbf968761	-1.1760064
180	0xbf78a361	-0.97124296
181	0xbef307f4	-0.47467005
182	0xbe040d4c	-0.12895697
183	0xbe2f52b6	-0.17121395
184	0xbf8021de	-1.0010335
185	0xbf250ab4	-0.64469457
186	0xbeefcd74	-0.46836436
187	0xbf5dddb5	-0.86666423
188	0xbf863032	-1.0483458
189	0xbf362987	-0.71157116
190	0x3fc978c6	1.5739982
191	0x3f885b91	1.0652944
192	0x3f80b4b7	1.005515
193	0x3f7f9502	0.9983674
194	0x3f9c0fe1	1.2192346
195	0x3f958e81	1.1684114
196	0x3fbe44bc	1.4864726
197	0x3fd497a7	1.6608781
198	0x3fe23ffb	1.7675775
199	0x3fad4f5e	1.3539846
200	0x3f13fd01	0.5780793
201	0x3eda75ac	0.42667902
202	0x3e62782d	0.22116156
203	0x3f5b69e7	0.8570847
204	0x3ea4a9df	0.3216085
205	0x3cfeda22	0.031109873
206	0x3ef82e02	0.484726
207	0x3f1f70f2	0.62281716
208	0x3f71927e	0.94364154
209	0xbd30accc	-0.043133542
210	0xbf7d1f6c	-0.9887607
211	0xbe60ae7c	-0.2194156
212	0xbe99a23f	-0.30006596
213	0xbdcfbc9b	-0.101433955
214	0xbe835174	-0.2564808
215	0xbf0e6e59	-0.5563713
216	0xbed12aaf	-0.40852877
217	0xbeb0d98a	-0.3454097
218	0xbcfea959	-0.03108661
219	0x3e593db9	0.21214952
220	0xbfa346d9	-1.2755996
221	0xbf8a38d3	-1.0798591
222	0xbf700ff7	-0.9377436
223	0xbf02030b	-0.50785893
224	0xbf39f2c4	-0.72636056
225	0xbdb043b7	-0.086066656
226	0x3fecabf7	1.848998
227	0xbef475d8	-0.47746158
228	0x3f31a90c	0.6939857
229	0xbdfccf1d	-0.12344191
230	0xbf652612	-0.89511216
231	0xbed27c7a	-0.41110593
232	0xc00119b3	-2.0171936
233	0x3e30fae4	0.17283207
234	0xbf2cdf31	-0.67528063
235	0xbeba1008	-0.36340356
236	0xbec406ed	-0.38286534
237	0xbfc6a049	-1.5517665
238	0x3f5cd2a8	0.86258936
239	0x3d866f6c	0.06564221
240	0xbd5f0651	-0.054449383
241	0x3ff1f616	1.8903224
242	0x3f2296b2	0.6351119
243	0x3fabf530	1.34342
244	0x3edf0b6d	0.43563405
245	0xbe1e2afa	-0.15446082
246	0xbdf792a8	-0.12088519
247	0xbf85acab	-1.0443319
248	0xbe259186	-0.16168794
249	0xbe5c6b95	-0.21525414
250	0xbf10e47f	-0.5659866
251	0x401ffa46	2.4996505
252	0x3c2f3f2b	0.010696213
253	0x3f48d8c9	0.7845579
254	0x3f15ce14	0.58517575
255	0xbf4d1eeb	-0.801253

conv1.bias f4 [6]
0	0xc0896eca	-4.294774
1	0xc082dad0	-4.0892105
2	0xc108a13f	-8.539367
3	0xc01c4a90	-2.442051
4	0xc0c32738	-6.0985374
5	0xbfccdbe0	-1.60046

conv2.weight f4 [16, 6, 5, 5]
0	0xbe836331	-0.25661615
1	0x3a857893	0.0010183029
2	0xbdcce28e	-0.100041494
3	0xbc5ff72d	-0.013669771
4	0xbdb598ab	-0.0886701
5	0xbe4fb8ac	-0.2028529
6	0xbcacb321	-0.021081509
7	0xbd01b24d	-0.03166418
8	0xbdecc7e0	-0.11561561
9	0xbdeec3ef	-0.11658465
10	0xbe55e971	-0.20889832
11	0xbd5cf3a6	-0.0539433
12	0xbdfe3c79	-0.12413878
13	0xbdd13bc3	-0.10216477
14	0xbd93e5e7	-0.07221585
15	0xbdd2bf15	-0.10290352
16	0xbd68d48f	-0.056843337
17	0xbd8ed38a	-0.069739416
18	0xbc4a3a6c	-0.01234303
19	0x3c51ebc1	0.012812556
20	0xbcb24cd7	-0.021765156
21	0xbde1b5a9	-0.11020977
22	0xbbbdeffa	-0.0057964297
23	0xbd7f93f3	-0.062396955
24	0xbc818505	-0.015810499
25	0xbdf519aa	-0.11967786
26	0xbe11fec0	-0.14257336
27	0xbda94a7b	-0.08266159
28	0xbdac5c67	-0.08416062
29	0x3b94613e	0.0045281937
30	0xbc9a7294	-0.018853463
31	0xbdf175a5	-0.11790017
32	0xbcdb9f5b	-0.026809385
33	0xbe150b78	-0.14555156
34	0xbdcda0ab	-0.100404106
35	0x3b1ade22	0.0023630937
36	0xbdc11cc5	-0.094293155
37	0xbdbde242	-0.09271671
38	0xbe0cb841	-0.13742162
39	0xbd89e93a	-0.067339376
40	0xbdb7b0d8	-0.08969277
41	0xbd032206	-0.03201487
42	0x3b66b07b	0.0035200405
43	0x3cad6ec6	0.021170985
44	0xbd8b4fa8	-0.068023026
45	0xbddb005f	-0.1069343
46	0xbdd9dd07	-0.10637861
47	0xbe0122c5	-0.1261092
48	0xbd6b8712	-0.05750186
49	0xbdfdea3f	-0.123981945
50	0xbe0825c1	-0.13295652
51	0xbd522028	-0.051300198
52	0xbcf7918a	-0.030220766
53	0xbdfb043e	-0.122566685
54	0xbd12b132	-0.035813518
55	0xbdd598e5	-0.10429553
56	0xbb13a8b6	-0.002253098
57	0xbd841775	-0.064497866
58	0xbd70a7e9	-0.05875388
59	0xbdeef05e	-0.1166694
60	0xbd9cdcb2	-0.07659282
61	0xbd7f7ae3	-0.062373053
62	0xbd4c4448	-0.049869806
63	0xbe17cdee	-0.1482465
64	0xbd3617a3	-0.044456135
65	0xbc56155e	-0.013066618
66	0xbda8ad6f	-0.08236205
67	0xbd338fc2	-0.04383827
68	0xbcaf3cd3	-0.021391308
69	0xbdda889e	-0.10670589
70	0xbe0f73a0	-0.14008951
71	0xbd7adeaf	-0.061247524
72	0xbdf393e3	-0.118934415
73	0xbd5cd707	-0.053916004
74	0xbde82b6f	-0.11336409
75	0xbd353dd9	-0.044248436
76	0xbbbe44cc	-0.005806541
77	0xbe12b3a8	-0.14326346
78	0xbdd3aa0a	-0.10335167
79	0xbda8d9de	-0.0824468
80	0xbcaebc0c	-0.021329902
81	0xbe160b1b	-0.14652674
82	0xbde35537	-0.11100238
83	0xbdb395d3	-0.08768811
84	0x3c0665a0	0.00820294
85	0xbd60456c	-0.054753706
86	0xbda914e1	-0.082559355
87	0x3b07210e	0.0020619067
88	0xbd69ecfc	-0.05711077
89	0xbdb0ae92	-0.08627047
90	0xbc69e0c1	-0.014274777
91	0xbd8bb837	-0.068222456
92	0xbc94de5b	-0.018172434
93	0xbbe187ac	-0.0068826284
94	0xbd5ff571	-0.05467743
95	0x3aedccbd	0.0018142682
96	0xbc399b4f	-0.011328532
97	0xbd1f65a7	-0.038915303
98	0xbdc0b30c	-0.094091505
99	0xbdd7682b	-0.10517915
100	0xbc745646	-0.014913147
101	0xbd926a5c	-0.07149193
102	0xbda44f92	-0.08022989
103	0xbdec8a6f	-0.115498416
104	0xbdf577bb	-0.119857274
105	0xbdaf20eb	-0.085512005
106	0xbda75fba	-0.08172555
107	0x3cd556b6	0.026042324
108	0xbe0d4153	-0.1379445
109	0xbdc961d2	-0.09833111
110	0x3c9d685b	0.0192148
111	0xbd867c01	-0.065666206
112	0xbd8e73f0	-0.06955707
113	0xbcfac9ff	-0.030613897
114	0xbdb8b5c0	-0.09019041
115	0xbd59cc9e	-0.053173654
116	0xbd2e5c99	-0.042568777
117	0x3cffb9e6	0.031216573
118	0x3c80c133	0.015717125
119	0xbd186802	-0.037208565
120	0xbd258e63	-0.040418994
121	0xbd97ecf7	-0.07418244
122	0xbd2f76c0	-0.04283786
123	0xbda58ab2	-0.08083095
124	0xbd8b45d5	-0.06800429
125	0xbd736520	-0.059422612
126	0xbdbade5d	-0.09124444
127	0xbdec6d3a	-0.11544271
128	0x3b6963b1	0.00356124
129	0xbde0b2ec	-0.10971627
130	0xbde6d0fc	-0.11270329
131	0xbc4e6118	-0.012596391
132	0xbd091648	-0.033468515
133	0xbc6af17f	-0.014339804
134	0xbd9b7ed4	-0.0759255
135	0xbc8d0adb	-0.01721709
136	0x3c8be782	0.017078165
137	0x3c722a82	0.014780642
138	0xbd6cc0e1	-0.05780113
139	0xbdb08097	-0.086182766
140	0x3c17c290	0.009262696
141	0xbd843466	-0.06455307
142	0xbd3e7697	-0.046499815
143	0xbd9c5e6b	-0.07635196
144	0xbd9a6f02	-0.07540704
145	0xbdd370f5	-0.10324279
146	0xbca5b32b	-0.020227036
147	0xbdbff21d	-0.09372351
148	0xbca90ae5	-0.020635078
149	0xbad4777c	-0.0016209926
150	0xc008fd99	-2.1404784
151	0xbfb6ae5a	-1.4271958
152	0xbf9da8c6	-1.231713
153	0xbfeb888b	-1.8401045
154	0x3f07e2cc	0.5308044
155	0xbf4e6590	-0.8062372
156	0xbfae4732	-1.3615477
157	0xc00a2085	-2.1582348
158	0xbf8d4a64	-1.1038327
159	0xbfd7c9ba	-1.6858437
160	0xc00a01f0	-2.1563683
161	0xc03d9a63	-2.962548
162	0xc0020b4d	-2.0319397
163	0x3c75c09e	0.014999537
164	0xc016c28a	-2.3556237
165	0xc02f8aa6	-2.7428374
166	0xbea455bc	-0.3209666
167	0x3ed677a3	0.4188815
168	0x3ddbb013	0.10726943
169	0xbf050c40	-0.51971817
170	0xbf328c64	-0.6974547
171	0x3f41592a	0.7552668
172	0xbf7bede2	-0.98409855
173	0xc063ff7c	-3.5624685
174	0xc09778db	-4.733503
175	0xbff425b6	-1.9074008
176	0xbfa3e2b9	-1.2803565
177	0xbeaf20b5	-0.3420464
178	0x3f8364ba	1.0265114
179	0x3f5f2e62	0.8718015
180	0xbebf9b1a	-0.3742302
181	0xbfa80315	-1.312594
182	0xbee2f664	-0.44328606
183	0x400c8fe7	2.196283
184	0x3d11e6f3	0.03562064
185	0xc0811dc7	-4.034885
186	0xbf20c2d7	-0.627973
187	0x3f976c9a	1.1830018
188	0xbeb65cdf	-0.3561773
189	0xbfe42f5b	-1.7826952
190	0xbf6b9962	-0.9203092
191	0x3ecc6e70	0.39928007
192	0x3e875b07	0.26436636
193	0xc0169580	-2.3528748
194	0x3f51a1fe	0.81887805
195	0x3fa0a514	1.2550378
196	0xbf91900c	-1.1372085
197	0xbf2b03a9	-0.6680246
198	0xbf65802c	-0.896487
199	0xbf9df963	-1.2341732
200	0xbf80d7cb	-1.0065855
201	0xbf8cbf06	-1.0995796
202	0xbf5618c8	-0.83631563
203	0x3d52bc89	0.051449332
204	0xbe9d65cb	-0.30741724
205	0x3f408205	0.75198394
206	0x3f4b968a	0.7952658
207	0x3f8e6eb1	1.112753
208	0x3fd232b3	1.6421722
209	0x3f85fbe3	1.0467495
210	0xbf05dccb	-0.5229003
211	0xbf470cbe	-0.7775382
212	0xbfeb09ed	-1.8362404
213	0xbfe31794	-1.774157
214	0xbfee5cdc	-1.8622088
215	0xbf9533b8	-1.1656408
216	0xbf8843e3	-1.0645717
217	0xbf88b5a2	-1.068043
218	0xbdcc2884	-0.09968665
219	0xbe9372a8	-0.28798413
220	0x3d982f0c	0.074308485
221	0xbf11b91e	-0.5692309
222	0x3ecdebef	0.40219066
223	0x3f21de66	0.6322998
224	0xbf4405e6	-0.765715
225	0xc064bf51	-3.574177
226	0xbf4616a5	-0.773783
227	0xbfa794c1	-1.3092271
228	0xbf71c554	-0.94441724
229	0xbe84e0d5	-0.25952783
230	0x3f43cef4	0.7648766
231	0xbdd52134	-0.104067236
232	0xbebf6a8c	-0.37385976
233	0xbdba77b8	-0.09104866
234	0xbf1c021d	-0.60940725
235	0xc0025d1e	-2.0369334
236	0xbfb78af3	-1.4339279
237	0xbfc364c5	-1.5265127
238	0xc0082d51	-2.127766
239	0xbfbdb91d	-1.4822117
240	0x3f716a17	0.94302505
241	0xbf158119	-0.5840011
242	0xbfd2192b	-1.6413931
243	0xbeb9c335	-0.36281744
244	0xbf7ff39c	-0.99981093
245	0xbf9b292e	-1.2121942
246	0x3e99435a	0.29934198
247	0x3f322612	0.6958934
248	0x3f8f1951	1.1179601
249	0x3fb4d8f6	1.4128711
250	0x3f613197	0.87966293
251	0x3f0ef0eb	0.5583636
252	0xbe4cdac2	-0.20005324
253	0xbff5f782	-1.9216158
254	0x3ef996eb	0.48747954
255	0xc01e5122	-2.473702

conv2.bias f4 [16]
0	0xbdc8d77f	-0.098067276
1	0xbf78234d	-0.96928865
2	0x3f9941e5	1.1973234
3	0x3fa5340d	1.290651
4	0xbf70b4e7	-0.94026035
5	0x40e24e9d	7.0720963
6	0xbf841990	-1.0320301
7	0xbf548aff	-0.8302459
8	0x3fe155ff	1.7604369
9	0x4078f521	3.8899615
10	0x40ea0e9d	7.314284
11	0xbebdd9d0	-0.3708024
12	0x3fc14921	1.5100442
13	0x3fc64719	1.5490447
14	0xbe38e182	-0.18054774
15	0x407582c5	3.8361065

fc1.weight f4 [120, 400]
0	0xbd4dc9f7	-0.050241437
1	0x3bacabd0	0.005269505
2	0xbd01f361	-0.031726245
3	0x3cd064e3	0.025438732
4	0xbca798cb	-0.0204586
5	0x3c12ab8a	0.008952031
6	0x3cfb683e	0.030689355
7	0x3d3b0da3	0.045667302
8	0x3d22f043	0.039779913
9	0x3a797ca8	0.00095171714
10	0x3d02d082	0.03193713
11	0xbda5882b	-0.080826126
12	0xbd9718a2	-0.07377745
13	0xbc5e1cfe	-0.013556717
14	0xbcd407f9	-0.025882708
15	0x3d2f2ae8	0.042765528
16	0x3d32d1b7	0.04365703
17	0x3d906d0a	0.070520476
18	0x3ba6a2d2	0.0050853277
19	0x3d850c7b	0.06496521
20	0x3ca78f59	0.020454096
21	0x3d9c75e2	0.07639672
22	0x3d2f7982	0.04284049
23	0x3d899b21	0.067190416
24	0x3ce6c1ac	0.028168522
25	0xbe11afe7	-0.14227258
26	0xbf23087c	-0.6368482
27	0xbf2c59f7	-0.67324775
28	0xbc96d015	-0.018409768
29	0xbf49dd02	-0.78852856
30	0xbd10dd3f	-0.035367247
31	0x3e8145eb	0.25248656
32	0x3f49f55b	0.7889001
33	0xbd04ae08	-0.03239253
34	0xbf784414	-0.9697888
35	0x3f6ecc19	0.9328018
36	0xbf0ae5c9	-0.54256874
37	0x3f96b588	1.1774149
38	0xbec43863	-0.3832427
39	0x3f22db2a	0.6361567
40	0x3f9dc441	1.2325517
41	0x3e83cfe5	0.25744548
42	0x3f03c447	0.5147137
43	0x3f4fbeca	0.81150496
44	0x3f48f607	0.7850041
45	0x3f0ad82a	0.5423609
46	0x3f9547d2	1.1662543
47	0xbf0bad0e	-0.54560935
48	0xbf133b09	-0.57511955
49	0xbdfec327	-0.12439566
50	0x3fab8bdb	1.3402056
51	0x3d11904b	0.035538
52	0x3ff3dc37	1.9051579
53	0x4014104d	2.313495
54	0xc0381833	-2.876477
55	0x3fb1788c	1.3864913
56	0xbec8082a	-0.3906873
57	0x3f84c4f0	1.03726
58	0xbfd7c546	-1.6857078
59	0x3f038321	0.5137196
60	0xbfdac8ea	-1.7092564
61	0x3e957037	0.29187176
62	0xbe9fbb79	-0.31197718
63	0x3ee68f73	0.45031318
64	0xbf714495	-0.9424527
65	0xbfe4a2aa	-1.7862141
66	0xbf277f65	-0.65428764
67	0xbf71af71	-0.9440833
68	0xbd87794a	-0.06614931
69	0x3c3a9011	0.011386887
70	0xc01690b2	-2.3525815
71	0xbfc45180	-1.5337372
72	0x3e174122	0.1477094
73	0xbf996e41	-1.1986772
74	0xbf9f7dc9	-1.2460262
75	0xbfc92347	-1.5713891
76	0xc01d292b	-2.4556377
77	0xc01c0952	-2.4380689
78	0xbae8bc44	-0.0017756303
79	0x3ecc6707	0.39922354
80	0xbca8fd9a	-0.02062874
81	0xbf7bef55	-0.98412067
82	0xbecd9bbd	-0.4015788
83	0xbd10c13d	-0.035340536
84	0xbfcaf62b	-1.5856375
85	0xbfa7592e	-1.307409
86	0xbe89ff4e	-0.26952595
87	0x3f1c19ec	0.60977054
88	0x3f3dfc6c	0.7421329
89	0x3e8bde09	0.27317837
90	0xbe89d84d	-0.26922837
91	0x3ee8e43e	0.45486635
92	0x3fc9e18f	1.577196
93	0xbef86aad	-0.48518887
94	0xbf2df394	-0.67949796
95	0xbefc1f0b	-0.49242434
96	0xbf7f7e44	-0.9980204
97	0xbf3baa8a	-0.73307097
98	0x3f0bdb85	0.54631835
99	0xbfad930a	-1.3560498
100	0x3db881ce	0.09009133
101	0x3d9b94ec	0.07596764
102	0x3dbbae81	0.09164143
103	0x3d5b2256	0.053499542
104	0xbc47f41a	-0.012204194
105	0x3d95683c	0.07295272
106	0x3c71ee68	0.014766313
107	0x3d14abb6	0.03629657
108	0x3d6ecdb7	0.058301654
109	0xbbb5a28d	-0.005543059
110	0x3c2b702d	0.0104637565
111	0x3cb4b423	0.022058552
112	0x3d8dc451	0.0692221
113	0x3d59eb67	0.053203013
114	0x3db7d395	0.08975903
115	0x3cce3a92	0.025174413
116	0x3d2e882e	0.04261034
117	0x3cf929e7	0.030415488
118	0x3cee6a6c	0.02910348
119	0x3cb114f4	0.021616437
120	0x3d35acc0	0.0443542
121	0x3d146883	0.036232483
122	0x3db07449	0.0861593
123	0x3e0e57c1	0.13900663
124	0x3dd1e906	0.10249524
125	0xbf742a94	-0.9537747
126	0x3f41e0ee	0.7573384
127	0x3f612787	0.8795094
128	0xbea1f480	-0.3163185
129	0xbf463b60	-0.7743435
130	0xc006e6b9	-2.1078322
131	0x403bb20f	2.9327428
132	0x3fe79954	1.8093667
133	0x4027caf5	2.6217625
134	0xc01658ba	-2.3491654
135	0xbfdad006	-1.7094734
136	0x3f39577e	0.7239913
137	0x3da6ab7d	0.081381775
138	0xbfad6729	-1.3547107
139	0x3f5c2d67	0.8600678
140	0xbfec4b34	-1.846045
141	0xbefacbb7	-0.48983547
142	0xbfd72d47	-1.6810693
143	0xbedca45a	-0.4309414
144	0xbfeeb434	-1.8648744
145	0xc0b631e7	-5.6935916
146	0xc0113f0b	-2.2694728
147	0x3ea275d0	0.3173051
148	0xc07208fb	-3.7817981
149	0xc00d957b	-2.2122486
150	0xbfd7c8f8	-1.6858206
151	0x3f454ecb	0.77073354
152	0xbf270d8a	-0.65255034
153	0x3fba1a3a	1.4539254
154	0xbf4b7031	-0.79468066
155	0x3dcfa70f	0.10139286
156	0x3f70f809	0.9412847
157	0xbfc2220f	-1.5166644
158	0x3fb06c51	1.3783056
159	0x3f8ae4eb	1.085111
160	0xbf875c69	-1.0575076
161	0x3ea1e518	0.31620097
162	0xc0016983	-2.022065
163	0xbf905409	-1.1275645
164	0x3fc779f1	1.5584089
165	0xbf5ec14e	-0.8701371
166	0xc00aabe1	-2.1667407
167	0x3df4e0ce	0.119569406
168	0x3edafdb3	0.42771682
169	0xbf9229fa	-1.141906
170	0xc0179cd2	-2.3689466
171	0xbfd51b53	-1.6648964
172	0xbeda693e	-0.42658418
173	0x3d927a97	0.071522884
174	0xbfc908c9	-1.5705806
175	0x3f5fb9ff	0.8739318
176	0x3e8f1ac5	0.2795011
177	0xbfef3137	-1.8686894
178	0xbfa79615	-1.3092676
179	0xbf2a72b5	-0.6658128
180	0xbe7b3b4f	-0.24534343
181	0xbf8f1640	-1.1178665
182	0x3f4dd770	0.80406857
183	0xbf5021dd	-0.8130167
184	0xbe85a555	-0.261027
185	0xbefe7676	-0.49699754
186	0xbe393da4	-0.1808992
187	0x3f570dc4	0.8400538
188	0x3f378139	0.71681553
189	0x3fdb31a6	1.7124527
190	0xbf2986f5	-0.66221553
191	0x3f8e681f	1.1125525
192	0x3d1436b3	0.036184978
193	0xbd8c719b	-0.06857606
194	0xbf5149b5	-0.81753093
195	0x3bd4cf9f	0.006494477
196	0xbe1d03f7	-0.15333544
197	0xbe9af312	-0.30263573
198	0xbec50c28	-0.38485837
199	0xbee922f7	-0.4553449
200	0x3f9f8b82	1.246445
201	0x3ec4ae9e	0.38414472
202	0xbf40154d	-0.750325
203	0xc02d1548	-2.704424
204	0x3e3607bb	0.17776386
205	0xbe9ebb85	-0.3100244
206	0xbe8cb4a0	-0.27481556
207	0xbf286462	-0.6577817
208	0xbb8514c4	-0.0040613133
209	0x3e4faa68	0.20279849
210	0xbc279654	-0.010228712
211	0xbf48a48a	-0.78376067
212	0x3ee55dde	0.44798177
213	0x3fb054c0	1.3775864
214	0x3fbee195	1.4912592
215	0x3f131813	0.5745861
216	0xbf893ce0	-1.0721703
217	0xbd5dfaf8	-0.05419442
218	0xbf172576	-0.59041536
219	0x3f04b2d5	0.51835376
220	0xbcdd1f78	-0.026992545
221	0x3e1fc40e	0.15602133
222	0x3eb6b6d9	0.35686377
223	0xbe8d66bc	-0.27617443
224	0xbddf735c	-0.10910675
225	0xbe21ac9f	-0.15788506
226	0x3f138c6a	0.5763613
227	0xbf6fd459	-0.9368339
228	0xbd973358	-0.0738284
229	0xbf65f34f	-0.89824384
230	0xbf82f308	-1.0230417
231	0xbe7b4c5d	-0.24540849
232	0xbf95a923	-1.1692241
233	0xbf3edc62	-0.7455503
234	0x3f02a825	0.5103782
235	0x3f060458	0.5235038
236	0x3e42af26	0.19012126
237	0xbf0e3025	-0.5554221
238	0xbf8316ed	-1.0241371
239	0xbfc7b7ac	-1.5602927
240	0xbe9e3c8f	-0.30905578
241	0x3f27235e	0.6528834
242	0x3e5a52da	0.21320668
243	0xbf7da9f4	-0.9908745
244	0xbfed3977	-1.8533162
245	0xbf4f998a	-0.81093657
246	0xbfd59a95	-1.66878
247	0xbe03ef49	-0.12884249
248	0xbdcf9e02	-0.101375595
249	0x3ea3d526	0.31998557
250	0xc0138f24	-2.3056116
251	0xc0010486	-2.015901
252	0xc0392788	-2.8930378
253	0xc0a448b6	-5.133876
254	0xc070fce3	-3.765435
255	0xc010a3f2	-2.2600064

fc1.bias f4 [120]
0	0x412ee562	10.931002
1	0xc0b0f1d1	-5.5295186
2	0xbfd8718b	-1.690965
3	0xbe8e2aac	-0.2776693
4	0xc0317788	-2.7729206
5	0xbf7e5d12	-0.99360764
6	0xc0418308	-3.0236225
7	0xbfc475b7	-1.5348424
8	0xbeaf4a07	-0.34236166
9	0xc08a030a	-4.312871
10	0xc0dfd9cd	-6.995337
11	0xbfd81be7	-1.6883515
12	0xc0432caf	-3.0496023
13	0xc0b4489a	-5.6338625
14	0xc061b237	-3.5265024
15	0x3fee1dec	1.8602881
16	0xc09c87d1	-4.891579
17	0xc0438550	-3.0550117
18	0xbff52458	-1.9151716
19	0xc0ee0f56	-7.439372
20	0xc05e8019	-3.4765685
21	0xc0020085	-2.0312817
22	0xc056a34e	-3.3537173
23	0xc05dc7f2	-3.4653287
24	0xc0cc9889	-6.39362
25	0xc08b1a22	-4.34694
26	0x3e874241	0.26417735
27	0xc0342cab	-2.8152263
28	0xc07b2f0c	-3.9247465
29	0xbeaab1bb	-0.33338723
30	0xc096bfa7	-4.710895
31	0xc0823df9	-4.070065
32	0xbddfb633	-0.109234236
33	0xc09506c3	-4.6570754
34	0xbf8c5327	-1.0962876
35	0xc0a7d512	-5.2447596
36	0xc0750fb1	-3.8290827
37	0x406846ee	3.6293292
38	0xbffc1685	-1.9694372
39	0xbe8ea32d	-0.27858868
40	0x40da019c	6.8126965
41	0xbe6f2a7d	-0.23356052
42	0xbee92909	-0.4553912
43	0xc00a6d42	-2.1629186
44	0xc01f9cf7	-2.4939554
45	0xc0584b79	-3.3796065
46	0x40796322	3.8966756
47	0xc089ccff	-4.306274
48	0xc0769052	-3.8525586
49	0xc096017a	-4.6876802
50	0xbffc7a77	-1.9724873
51	0xc0956a8c	-4.669256
52	0xc0538e64	-3.3055658
53	0x3f20d7e2	0.6282941
54	0x409ba9a5	4.8644586
55	0xc06593df	-3.5871503
56	0x401596de	2.3373332
57	0xc1158dd8	-9.34713
58	0x3f390b55	0.72282916
59	0xbffb30e9	-1.9624301
60	0xbedac613	-0.42729244
61	0x406bc44a	3.6838555
62	0xc042ca69	-3.0436041
63	0xc0500424	-3.2502527
64	0xbfc6f5ea	-1.5543797
65	0xc01448a8	-2.3169346
66	0xbfc94f35	-1.5727297
67	0x3fd2000c	1.6406264
68	0xc0423f93	-3.0351303
69	0xbfae92b0	-1.3638515
70	0x403aa082	2.9160466
71	0xc0282a4e	-2.627582
72	0xc0f9f91d	-7.8116593
73	0xbed210a1	-0.41028312
74	0xbede0c6e	-0.43368858
75	0xbf19f859	-0.60144573
76	0xc0ecbda6	-7.3981504
77	0xc03664cf	-2.8499029
78	0xbfd4b330	-1.6617184
79	0xc01719d5	-2.3609517
80	0xc030549a	-2.7551637
81	0xc05ac699	-3.4183714
82	0xc0425cc0	-3.036911
83	0x411c71c7	9.777778
84	0xc0375f1e	-2.8651805
85	0xc09572cd	-4.670264
86	0xbfa900e7	-1.32034
87	0xc0255b5c	-2.5837011
88	0xbfc1b554	-1.5133462
89	0xc07eefa2	-3.983376
90	0xc0546467	-3.318628
91	0xbf4496c1	-0.7679253
92	0xc06ebb50	-3.7301826
93	0xc08103bd	-4.0317063
94	0xbf146c92	-0.57978165
95	0xbfbac57a	-1.4591515
96	0xc037465d	-2.8636696
97	0xc03e76c1	-2.9759982
98	0xc08d791a	-4.421033
99	0xc081d345	-4.0570397
100	0xbfbb006a	-1.4609501
101	0xbfd73e17	-1.6815823
102	0xbc3e2240	-0.0116048455
103	0xbf31718e	-0.69313896
104	0xbf8d26fb	-1.1027521
105	0xc06d0aa9	-3.7037756
106	0xc008e216	-2.1387992
107	0xc0a2921f	-5.080337
108	0xc08f7737	-4.4833026
109	0xbeedc6b6	-0.46440667
110	0xbfbcf665	-1.4762694
111	0x3fbb2ca0	1.4622993
112	0xc024401b	-2.5664127
113	0xbf4a285b	-0.7896783
114	0xbf12a399	-0.5728088
115	0xbf3912b1	-0.72294146
116	0xc016a3f0	-2.353756
117	0xbf2bc1f0	-0.670928
118	0xc0a2a636	-5.0827894
119	0xbf522a1e	-0.82095516

fc2.weight f4 [84, 120]
0	0xbf348ba8	-0.705256
1	0xbf3267b0	-0.69689465
2	0xbe24246a	-0.16029516
3	0xbd95e55c	-0.073191375
4	0xbe44f1f3	-0.19232921
5	0xbf418001	-0.75585943
6	0xbeb3ce48	-0.35118318
7	0xbd96bd66	-0.07360344
8	0x3d89205e	0.06695627
9	0xbd91e95b	-0.07124587
10	0xbf84a834	-1.0363832
11	0xbbc7d842	-0.006098778
12	0xbf72cd3e	-0.94844425
13	0xbf4f89d6	-0.81069696
14	0xbe15abe1	-0.14616348
15	0xbcf5e317	-0.030015511
16	0xbf5ab400	-0.8543091
17	0xbea0901c	-0.31359947
18	0xbd8cd37e	-0.068762764
19	0x3cff595e	0.031170543
20	0x3d53bcc5	0.051693697
21	0xbea2f822	-0.31829935
22	0xbe8aa3b7	-0.2707803
23	0x3d0d15dc	0.034444675
24	0xbd8e50f6	-0.06949036
25	0xbed5f73c	-0.41790187
26	0x3bcaa9bb	0.006184784
27	0xbdcefb7c	-0.101065606
28	0xbe98719a	-0.2977417
29	0x3e09c616	0.1345447
30	0xbea5ec25	-0.32406726
31	0xbd733942	-0.059380777
32	0x3e74ebc3	0.23918061
33	0xbd38a641	-0.045080427
34	0xbea77095	-0.3270308
35	0x3e644a06	0.22293863
36	0x3cc48550	0.02398935
37	0xbeb79f88	-0.358639
38	0xbf1763e8	-0.5913682
39	0xbd1dd307	-0.03853133
40	0xbf693855	-0.9110158
41	0xbdc81a2a	-0.097706154
42	0xbd3dd221	-0.046342973
43	0xbe138bf0	-0.1440885
44	0xbcf7cc40	-0.030248761
45	0xbf65a6b5	-0.897075
46	0xbe79f815	-0.24411042
47	0xbb0b86ac	-0.0021289987
48	0xbeade3bb	-0.33962807
49	0xbf3ff926	-0.74989545
50	0xbda712f8	-0.08157915
51	0x3d9005ad	0.070323326
52	0xbe999233	-0.29994354
53	0xbf0dd56c	-0.5540378
54	0xbec80a57	-0.3907039
55	0xbe709cf9	-0.2349738
56	0xbf34acb8	-0.7057605
57	0xbd0ffe6e	-0.035154752
58	0xbf6c6889	-0.9234701
59	0xbe5ccde5	-0.21562918
60	0xbb20e632	-0.002455127
61	0xbea40542	-0.3203526
62	0xbe846d29	-0.25864533
63	0xbdd9e5b3	-0.10639515
64	0xbda2ed15	-0.07955376
65	0xbf6aa726	-0.916613
66	0xbe549b00	-0.20762253
67	0xbf5e279c	-0.8677919
68	0xbb5e5a97	-0.0033928507
69	0xbdff1b7a	-0.124564126
70	0xbecb4353	-0.39699802
71	0xbeca0b38	-0.39461684
72	0xbf00bd1c	-0.5028856
73	0xbc3f786c	-0.011686426
74	0xbe8d0793	-0.2754484
75	0x3bb0be15	0.0053937533
76	0xbed67108	-0.4188311
77	0xbe77a7f1	-0.24185158
78	0x3e5c70aa	0.21527353
79	0x3a476f40	0.0007607825
80	0xbd026147	-0.031831052
81	0xc00adf80	-2.1698914
82	0xbdcd805c	-0.10034248
83	0xbf36bf1f	-0.7138538
84	0xbda6b154	-0.081392914
85	0xbecce56d	-0.40018788
86	0xbc1d0d48	-0.009585686
87	0xbeb0cb2b	-0.34530005
88	0x3dda3fb2	0.1065668
89	0xbe23370f	-0.15938972
90	0xbeca729f	-0.39540574
91	0xbdac5cdc	-0.08416149
92	0xbe041c5c	-0.12901443
93	0xbe93f03b	-0.2889422
94	0xbe96b109	-0.29431942
95	0xbeebb9df	-0.46040246
96	0xbe19bb3b	-0.15012829
97	0xbc974147	-0.018463744
98	0xbe21b28c	-0.15790766
99	0x3d991057	0.0747382
100	0xbe884a76	-0.2661931
101	0xbd869155	-0.06570689
102	0xbe638739	-0.22219552
103	0xbdbcdc5a	-0.09221716
104	0xbe422e96	-0.18963084
105	0xbee1756f	-0.44034907
106	0xbd408e44	-0.047010675
107	0xbef14cc5	-0.47128883
108	0xbe3ceda6	-0.1845003
109	0xbdc80bdc	-0.09767887
110	0xbd3d476b	-0.046210688
111	0xbeb3855e	-0.3506269
112	0x3ef85e0e	0.48509258
113	0x3c0bcf46	0.008533305
114	0xbf0595f9	-0.52181965
115	0x3db8ad43	0.09017422
116	0x3c01c611	0.007920758
117	0xbd4ae10a	-0.04953102
118	0xbe84f675	-0.25969282
119	0xbebdba82	-0.37056357
120	0xbf493c5d	-0.7860773
121	0xbdabdbd9	-0.08391542
122	0xbe96cbb1	-0.2945228
123	0xbd82a1e8	-0.063785374
124	0xbe1de4bc	-0.15419286
125	0xbd5168b4	-0.051125243
126	0xbd9021aa	-0.07037671
127	0xbd8de114	-0.06927696
128	0x3bc0879c	0.005875541
129	0xbddcc59e	-0.1077988
130	0xbead3661	-0.3383055
131	0xbcec6469	-0.028856473
132	0xbf9f1980	-1.2429657
133	0xbf695758	-0.911489
134	0xbeeaa25a	-0.4582699
135	0xbf3834f1	-0.7195578
136	0xbf45570d	-0.77085954
137	0x3d9bb4e0	0.076028585
138	0x3dc9a46c	0.09845814
139	0x3d9dc73b	0.07704016
140	0x3d84eabc	0.064900845
141	0xbe3d06f2	-0.1845968
142	0xbefd336b	-0.4945329
143	0xbe13557f	-0.14388083
144	0xbea262e9	-0.31716087
145	0xbef4a6d2	-0.47783524
146	0xbef49e65	-0.47777095
147	0xbda5f3f5	-0.08103172
148	0xbf0e0ae8	-0.5548539
149	0xbd737e26	-0.059446476
150	0x3db3c7e5	0.08778361
151	0x3e060360	0.13087225
152	0xbec81871	-0.39081147
153	0x3d064e58	0.03278956
154	0xbe4324fd	-0.19057079
155	0x3c9ead40	0.019369721
156	0xbcdb7610	-0.026789695
157	0x3eb08f2d	0.34484234
158	0xbdf0fe2d	-0.1176723
159	0x3cb7a47c	0.0224173
160	0xbedb61d4	-0.42848074
161	0xbd4f17ca	-0.050559796
162	0xbe04fe53	-0.12987642
163	0x3dca1255	0.09866778
164	0xbe8910e6	-0.26770705
165	0xbec84db5	-0.39121786
166	0xbea19d06	-0.31565112
167	0x3b1236aa	0.0022310414
168	0x3d9c5ce0	0.07634902
169	0xbf551a59	-0.8324333
170	0xbd4c1c28	-0.04983154
171	0x3cc82d72	0.024435733
172	0xbf225036	-0.6340364
173	0xbf532615	-0.82479984
174	0xbea2618d	-0.3171505
175	0xbe8166ae	-0.2527365
176	0xbf7dd992	-0.9916011
177	0xbea58582	-0.3232842
178	0xbedc10dc	-0.42981613
179	0xbeadc19e	-0.3393678
180	0x3d86c18d	0.06579886
181	0xbecaa7e9	-0.3958123
182	0xbf4e6ea7	-0.8063759
183	0xbed1922e	-0.4093184
184	0xbcbd2e7e	-0.023093458
185	0xbed43dcd	-0.414534
186	0xbed5e559	-0.4177654
187	0xbf0f208d	-0.55909044
188	0x3df156f4	0.11784163
189	0xbe6d3de8	-0.23168147
190	0x3d7801fd	0.06054877
191	0x3dc146d1	0.09437335
192	0xbf50e247	-0.8159527
193	0xbda98a77	-0.08278363
194	0x3cd4dc50	0.02598396
195	0xbd8f9d57	-0.07012432
196	0xbf157235	-0.5837739
197	0x3bc9933a	0.006151584
198	0xbe66c125	-0.22534616
199	0xbe873c64	-0.26413262
200	0xbe14b7ea	-0.14523283
201	0xbf3174d3	-0.69318885
202	0xbf16e329	-0.5894037
203	0xbe23157d	-0.15926166
204	0x3d5fcba2	0.05463756
205	0xbd2f644b	-0.042820256
206	0x3bc830f0	0.0061093494
207	0xbdc8723d	-0.09787414
208	0x3d11a065	0.035553355
209	0x3e7cb089	0.24676718
210	0xbf0ae95b	-0.5426232
211	0xbb4b01cd	-0.0030976415
212	0xbec18500	-0.37796783
213	0xbe10731a	-0.14106408
214	0xbe9f0434	-0.31057894
215	0xbecdfeec	-0.40233552
216	0xbd3f9555	-0.046773273
217	0xbd2bce7b	-0.041944962
218	0x3de59a28	0.112110436
219	0xbd8f7bb5	-0.07006017
220	0x3d586921	0.052834634
221	0x3d741c09	0.05959705
222	0xbe4f94fa	-0.20271674
223	0xbe988d44	-0.29795277
224	0x3e5849fd	0.21121974
225	0xbe5eae36	-0.21746144
226	0x3c4d3816	0.012525579
227	0xbe6b2945	-0.22964962
228	0xbef7a19d	-0.4836549
229	0xbec12a17	-0.37727425
230	0xbe8e7fad	-0.27831784
231	0xbf2acc43	-0.6671793
232	0x3d93dc17	0.07219713
233	0xbd9ee7f2	-0.07759084
234	0x3da8e35b	0.082464896
235	0x3c21a47c	0.009865876
236	0xbeab387c	-0.33441532
237	0xbce8101c	-0.028327994
238	0xbe1996a7	-0.14998876
239	0xbd2dea42	-0.042459734
240	0x3e643a7d	0.22287937
241	0xbe28fc5a	-0.16502514
242	0xbe0929d8	-0.13394868
243	0xbb87dcfd	-0.004146217
244	0xbdcdbce3	-0.10045793
245	0xbde8ba81	-0.11363698
246	0x3e04d77c	0.12972826
247	0x3ce87acb	0.028378865
248	0x3dec64a2	0.11542632
249	0x3d17277e	0.036902897
250	0xbf272e1b	-0.65304726
251	0xbc87d0c9	-0.016579049
252	0xbee74faa	-0.45177966
253	0xbe96be8a	-0.29442245
254	0xbde5b30f	-0.11215793
255	0xbe53e637	-0.20693289

fc2.bias f4 [84]
0	0xc017b1fe	-2.3702388
1	0xbfe0c343	-1.7559589
2	0xbfa87913	-1.3161949
3	0xc03b6f18	-2.9286556
4	0xc00fbd13	-2.2459152
5	0xc004a6ed	-2.0726883
6	0xc0640d67	-3.563318
7	0x407e306c	3.9717054
8	0xbf8a8c54	-1.0824075
9	0xc068d5dc	-3.638053
10	0xc066d519	-3.6067564
11	0xbffe7e60	-1.9882317
12	0xc070b9ac	-3.7613325
13	0xbfcc4f61	-1.5961725
14	0xbf6b2487	-0.9185261
15	0xc0463cdc	-3.0974646
16	0x40e267ef	7.075187
17	0xbf7d1b4c	-0.98869777
18	0xc05acc55	-3.4187214
19	0xbfe36177	-1.7764119
20	0x40f213fe	7.5649405
21	0xc035725d	-2.8351052
22	0xbfd576df	-1.6676902
23	0xc046a51e	-3.103828
24	0xc01dd9ce	-2.4664187
25	0xbf69b3bb	-0.9128987
26	0xbfb2352d	-1.3922478
27	0xbfdf4e4d	-1.744577
28	0xc0a5553f	-5.166656
29	0x3fdfcf28	1.7485094
30	0xc02cf616	-2.70252
31	0xc084bd65	-4.1481194
32	0xc01258db	-2.2866733
33	0xc012ca54	-2.2935991
34	0xc0006089	-2.005892
35	0xbfd3583c	-1.6511302
36	0xc0a1f517	-5.061168
37	0xc0009727	-2.0092256
38	0xbf96f4fe	-1.1793516
39	0xc068d55a	-3.638022
40	0xbf984515	-1.1896082
41	0xc056e2e8	-3.3575993
42	0xbe707e4b	-0.23485677
43	0xc08c76a3	-4.389482
44	0xc0350903	-2.828675
45	0xbfcf9e1a	-1.6220124
46	0xc04b7e9d	-3.1796029
47	0xbfa8024e	-1.3125703
48	0x3fe8072e	1.8127191
49	0x4011ed98	2.2801266
50	0xbfef22f0	-1.8682537
51	0xbf89b361	-1.0757867
52	0xc00310fa	-2.0479112
53	0xbf9d1c9c	-1.2274356
54	0xc07ab871	-3.9175074
55	0xc015e71d	-2.342231
56	0xc02a166f	-2.6576192
57	0xc02ffa0b	-2.7496364
58	0xbffdc3fb	-1.9825433
59	0xc021fd8f	-2.531101
60	0xbf4bb3b0	-0.79571056
61	0xc0603986	-3.503511
62	0xbf3aefa2	-0.730219
63	0xbf4553ff	-0.7708129
64	0xbfa2ba52	-1.271311
65	0xbfc40281	-1.5313264
66	0xc0583408	-3.3781757
67	0xc001d78a	-2.0287805
68	0xc071dbae	-3.7790332
69	0xc0445f3b	-3.0683124
70	0xbfc9938f	-1.5748156
71	0x3ef70b64	0.48250878
72	0xbf089f0f	-0.53367704
73	0xc0665f36	-3.5995612
74	0xc0583098	-3.377966
75	0xc035b1fb	-2.838988
76	0xc01f6679	-2.4906294
77	0xc0374d60	-2.8640976
78	0xc0460d53	-3.0945632
79	0xc01abd05	-2.4177868
80	0xc00ad68d	-2.1693451
81	0xbfb0319c	-1.376514
82	0xbf9757f6	-1.1823719
83	0xc080b129	-4.021626

fc3.weight f4 [10, 84]
0	0xbf0ff481	-0.5623246
1	0xbf8415e1	-1.0319177
2	0xbf001434	-0.5003083
3	0xc0606ddb	-3.506705
4	0xbf70833e	-0.9395026
5	0xbedf6c44	-0.43637288
6	0xc01290ac	-2.29008
7	0x3d391db1	0.04519433
8	0xbf56a177	-0.83840126
9	0xbf84ebb0	-1.0384426
10	0xbfd5ca0a	-1.6702282
11	0xbf592bde	-0.8483256
12	0xc04e9401	-3.2277834
13	0xbf99b1c0	-1.200737
14	0xbdfd4bd6	-0.1236798
15	0xc016feea	-2.3593087
16	0x3d7abea1	0.061216954
17	0xbf0b91de	-0.5451945
18	0xc039a150	-2.9004707
19	0xbf6eeca5	-0.9332984
20	0x3d77cec2	0.060499914
21	0xbf9755e9	-1.1823093
22	0xbfc7258d	-1.5558335
23	0xc0222850	-2.5337105
24	0xbf776f58	-0.9665427
25	0xbf0628b7	-0.52405876
26	0xbd4b74dc	-0.049671993
27	0xbf70f3cd	-0.9412201
28	0xc00e9741	-2.2279818
29	0xbd809680	-0.062787056
30	0xbf6dde12	-0.9291698
31	0xc07de91d	-3.967353
32	0xbeeeb0f4	-0.4661938
33	0xbf8feaa3	-1.124348
34	0xbe7d8b74	-0.24760228
35	0xbe9961a1	-0.29957297
36	0xbebb1ca9	-0.36545303
37	0xbff86e4e	-1.9408662
38	0xbf8c4579	-1.0958701
39	0xbfa3b0db	-1.2788347
40	0xbf83fdbd	-1.031181
41	0xbf54e2fe	-0.8315886
42	0x3da98372	0.08277024
43	0xbff7afcd	-1.9350525
44	0xbf918f3e	-1.1371839
45	0xbf73bb01	-0.9520722
46	0xbf624802	-0.88391125
47	0xbecde311	-0.402123
48	0x3ea09b76	0.31368607
49	0x3d94bdc2	0.07262756
50	0xbf372d4c	-0.7155349
51	0xbf32bb41	-0.69816977
52	0x3df0033b	0.11719366
53	0xbf930e34	-1.148871
54	0xc012cb8a	-2.293673
55	0xbee4825f	-0.44630715
56	0xbe6e375b	-0.23263304
57	0xbee94b80	-0.45565414
58	0xbefc3081	-0.49255756
59	0xc00904c4	-2.1409159
60	0xbe4ecc51	-0.20195128
61	0xbf9fbf48	-1.248025
62	0xbfdb7ba9	-1.7147113
63	0xbec79670	-0.38981962
64	0x3d5cb6f5	0.05388542
65	0xbfdb21c4	-1.711968
66	0xbfd3779d	-1.6520878
67	0xbf8acef5	-1.0844408
68	0xbe97bcaa	-0.29636127
69	0xbfba66a8	-1.4562578
70	0xbe3677e7	-0.17819177
71	0x3e299635	0.16561206
72	0x3d55ef74	0.052230313
73	0xbf88f415	-1.0699488
74	0xc001caf6	-2.0280128
75	0xc01377ee	-2.304195
76	0xbfd3b08a	-1.653825
77	0xc049d3eb	-3.1535594
78	0xbf5ddd17	-0.8666548
79	0xc03136fe	-2.7689815
80	0xbfad5993	-1.3542961
81	0xbe37a8cb	-0.17935483
82	0xbd542623	-0.051794183
83	0xbf82de83	-1.0224155
84	0xbf99994f	-1.1999911
85	0xbfa3e0f2	-1.2803023
86	0xbf1eda70	-0.6205206
87	0xc0344251	-2.8165476
88	0xbf6762bd	-0.9038504
89	0xbf179ee2	-0.5922681
90	0xc026d1ab	-2.606547
91	0xbc998e65	-0.018744657
92	0xbee652ee	-0.44985145
93	0xbfd54345	-1.6661154
94	0xc018b624	-2.386117
95	0xbe855546	-0.2604162
96	0xc0529998	-3.2906246
97	0xbf5d6ce5	-0.86494285
98	0xbbd410d4	-0.0064717326
99	0xc03dd5a3	-2.9661644
100	0x3dbbbfdc	0.09167454
101	0xbeac9da5	-0.33714023
102	0xc03b9f68	-2.9316044
103	0xbebd8056	-0.37011975
104	0xbe2424b1	-0.16029622
105	0xbf9a192d	-1.2038933
106	0xbfab728e	-1.3394334
107	0xc0044811	-2.0668986
108	0xbf75fbe7	-0.960875
109	0xbf131221	-0.5744954
110	0xbefaf9bd	-0.4901866
111	0xbf565fbc	-0.8373983
112	0xbfa9438f	-1.3223742
113	0x3c8c52b0	0.017129272
114	0xbf82e103	-1.0224918
115	0xbfada76f	-1.3566722
116	0xbead3ac7	-0.33833906
117	0xbed67f07	-0.4189379
118	0xbfb78b84	-1.4339452
119	0xbe9c4e4d	-0.3052849
120	0xbf29a5c1	-0.66268545
121	0xc04024c8	-3.002245
122	0xbf2b0c86	-0.66815984
123	0xbf2f0f84	-0.6838305
124	0xbf8cd151	-1.1001378
125	0xbfcb40ec	-1.5879188
126	0x3e58117d	0.21100421
127	0xc088ea80	-4.2786255
128	0xbf7b0029	-0.9804712
129	0xbf901938	-1.1257696
130	0xbf9a99c8	-1.207818
131	0xbf53a922	-0.8267995
132	0xbda5e00f	-0.080993764
133	0xbd2ea12c	-0.042634174
134	0xbf375a29	-0.7162195
135	0xbef59dd4	-0.47971976
136	0x3e8b9eef	0.27269694
137	0xbf0113c1	-0.5042077
138	0xbfe28226	-1.7695968
139	0xbf69de85	-0.9135516
140	0xbf467dac	-0.7753551
141	0xbea14c17	-0.31503364
142	0xbdfe1fd2	-0.12408413
143	0xbf9a81da	-1.2070878
144	0xbe9c5ebb	-0.30541024
145	0xbfc9eb82	-1.5774996
146	0xbfb8a172	-1.4424269
147	0xbf4cdff0	-0.800292
148	0xbe982b29	-0.2972043
149	0xbf43aa1d	-0.7643145
150	0xbf185807	-0.5950932
151	0xbf0fb4f9	-0.5613552
152	0xbee6e594	-0.4509703
153	0xbf68a20d	-0.9087227
154	0xbeedba61	-0.46431258
155	0xbca82cc0	-0.020529151
156	0xbbf9d883	-0.007624687
157	0xbf998899	-1.1994811
158	0xbfa04bfb	-1.2523187
159	0xc0087b54	-2.1325274
160	0xbeaab63d	-0.33342162
161	0xc027c889	-2.6216147
162	0xbf3d830e	-0.740281
163	0xc030541b	-2.7551334
164	0xbfbd6be4	-1.4798551
165	0xbf28b566	-0.6590179
166	0xbc811602	-0.015757564
167	0xbfc2ea4b	-1.522775
168	0xbf07246a	-0.5278994
169	0xc0003e91	-2.0038188
170	0xbf1c32a2	-0.6101476
171	0xbf6ba80a	-0.9205328
172	0xbf48f8fa	-0.7850491
173	0xbee6839b	-0.45022282
174	0xbf9dd54c	-1.2330718
175	0x3d3cb7d2	0.046073742
176	0xbf3a2a2e	-0.7272061
177	0xbfc716d5	-1.5553843
178	0xbf7724a1	-0.96540266
179	0x3dd3896e	0.10328947
180	0xbf76404e	-0.9619187
181	0xbf2448bc	-0.64173484
182	0x3c134c39	0.008990341
183	0xbe891749	-0.26775578
184	0x3d9d040f	0.0766679
185	0xbead1621	-0.33805946
186	0xbef33a30	-0.4750533
187	0xbed805b4	-0.4219185
188	0x3e2f9428	0.17146361
189	0xbf5231ab	-0.8210704
190	0xbe9f4191	-0.3110471
191	0xbffbd9a3	-1.9675792
192	0xbf968aab	-1.1761068
193	0xbf066a9b	-0.5250642
194	0xbf5d9149	-0.8654981
195	0xbe4d76a4	-0.20064789
196	0xbf132e0e	-0.5749215
197	0x3c663641	0.014051021
198	0xbf8227e4	-1.0168424
199	0xbf62cabc	-0.885906
200	0xbeea963f	-0.45817754
201	0xbfecda90	-1.85042
202	0xbda0b852	-0.07847656
203	0xbd9ac6c6	-0.07557444
204	0xbf58e85a	-0.8472954
205	0xbf42d3a4	-0.7610419
206	0xbf85582d	-1.0417534
207	0xbef16b8b	-0.4715236
208	0xbf547a70	-0.82999325
209	0xbee8621d	-0.45387354
210	0xbd9850e8	-0.07437307
211	0xbf97a99c	-1.1848636
212	0xbfa483d8	-1.2852736
213	0xbfac43c6	-1.3458183
214	0xbda2c852	-0.07948364
215	0xbe233aa4	-0.15940338
216	0xbd424966	-0.04743328
217	0x3deb4841	0.11488391
218	0xbe929bed	-0.28634587
219	0xbf33a966	-0.70180357
220	0xbf0c482e	-0.5479764
221	0xbf65e900	-0.89808655
222	0xbf89cc99	-1.0765563
223	0xbeb04512	-0.34427696
224	0xbe6685da	-0.22511998
225	0xbe5623e3	-0.20912127
226	0xbf33bead	-0.70212823
227	0xbf259c2a	-0.6469141
228	0xbf258328	-0.64653254
229	0xbe01ff3b	-0.12695019
230	0xbfc5cf1b	-1.5453829
231	0xbf2b0ec9	-0.66819435
232	0xbe83e697	-0.25761864
233	0xbebfb642	-0.3744374
234	0xbf4d8429	-0.80279785
235	0x3da92b54	0.08260217
236	0xbddddf04	-0.108335525
237	0xbf5c9df7	-0.86178535
238	0xbdd06ef0	-0.1017741
239	0x3d09e8e8	0.033669382
240	0x3e58cd6d	0.21172114
241	0xbe428566	-0.189962
242	0xbf89f60b	-1.0778211
243	0xbf73c2bc	-0.95219016
244	0xbf3b6786	-0.7320484
245	0xbf652d2d	-0.8952206
246	0xbf64b0ba	-0.89332163
247	0xbf5b841a	-0.85748446
248	0xbe2ed4fb	-0.17073433
249	0xbf3c736f	-0.7361364
250	0x3dd96c17	0.106163196
251	0xbed470ae	-0.41492218
252	0xbe5e0353	-0.21680956
253	0xbf82ca5d	-1.0218006
254	0xbf89d6b3	-1.0768646
255	0xbfd4a681	-1.6613313

fc3.bias f4 [10]
0	0xbfbc8009	-1.4726573
1	0xbf6b0f6e	-0.9182042
2	0x3ea03062	0.31286913
3	0x3f7a8372	0.9785682
4	0x3f817788	1.0114603
5	0x3ec06643	0.3757802
6	0x400b6bb5	2.178449
7	0x3ce2a267	0.02766533
8	0xbfc66e41	-1.5502397
9	0xbf4ef5ff	-0.8084411
